{"class_name": "Model", "keras_version": "2.1.4", "config": {"layers": [{"name": "input_1", "class_name": "InputLayer", "config": {"batch_input_shape": [null, 84, 84, 3], "dtype": "float32", "sparse": false, "name": "input_1"}, "inbound_nodes": []}, {"name": "sequential_1", "class_name": "Sequential", "config": [{"class_name": "Conv2D", "config": {"name": "conv2d_1", "dilation_rate": [1, 1], "dtype": "float32", "kernel_initializer": {"class_name": "VarianceScaling", "config": {"scale": 1.0, "seed": null, "mode": "fan_avg", "distribution": "uniform"}}, "bias_regularizer": null, "bias_constraint": null, "use_bias": true, "batch_input_shape": [null, 84, 84, 3], "padding": "valid", "kernel_size": [8, 8], "strides": [4, 4], "kernel_regularizer": null, "filters": 32, "kernel_constraint": null, "activation": "relu", "trainable": true, "data_format": "channels_last", "bias_initializer": {"class_name": "Zeros", "config": {}}, "activity_regularizer": null}}, {"class_name": "Conv2D", "config": {"name": "conv2d_2", "dilation_rate": [1, 1], "kernel_initializer": {"class_name": "VarianceScaling", "config": {"scale": 1.0, "seed": null, "mode": "fan_avg", "distribution": "uniform"}}, "bias_regularizer": null, "bias_constraint": null, "use_bias": true, "padding": "valid", "kernel_size": [4, 4], "strides": [2, 2], "kernel_regularizer": null, "filters": 64, "kernel_constraint": null, "activation": "relu", "trainable": true, "data_format": "channels_last", "bias_initializer": {"class_name": "Zeros", "config": {}}, "activity_regularizer": null}}, {"class_name": "Conv2D", "config": {"name": "conv2d_3", "dilation_rate": [1, 1], "kernel_initializer": {"class_name": "VarianceScaling", "config": {"scale": 1.0, "seed": null, "mode": "fan_avg", "distribution": "uniform"}}, "bias_regularizer": null, "bias_constraint": null, "use_bias": true, "padding": "valid", "kernel_size": [3, 3], "strides": [1, 1], "kernel_regularizer": null, "filters": 64, "kernel_constraint": null, "activation": "relu", "trainable": true, "data_format": "channels_last", "bias_initializer": {"class_name": "Zeros", "config": {}}, "activity_regularizer": null}}, {"class_name": "Flatten", "config": {"name": "flatten_1", "trainable": true}}, {"class_name": "Dense", "config": {"name": "dense_1", "kernel_initializer": {"class_name": "VarianceScaling", "config": {"scale": 1.0, "seed": null, "mode": "fan_avg", "distribution": "uniform"}}, "bias_regularizer": null, "bias_constraint": null, "units": 512, "bias_initializer": {"class_name": "Zeros", "config": {}}, "kernel_regularizer": null, "activity_regularizer": null, "kernel_constraint": null, "activation": "relu", "trainable": true, "use_bias": true}}], "inbound_nodes": [[["input_1", 0, 0, {}]]]}, {"name": "input_2", "class_name": "InputLayer", "config": {"batch_input_shape": [null, 524], "dtype": "float32", "sparse": false, "name": "input_2"}, "inbound_nodes": []}, {"name": "concatenate_1", "class_name": "Concatenate", "config": {"name": "concatenate_1", "trainable": true, "axis": -1}, "inbound_nodes": [[["sequential_1", 1, 0, {}], ["input_2", 0, 0, {}]]]}, {"name": "dense_2", "class_name": "Dense", "config": {"name": "dense_2", "kernel_initializer": {"class_name": "VarianceScaling", "config": {"scale": 1.0, "seed": null, "mode": "fan_avg", "distribution": "uniform"}}, "bias_regularizer": null, "bias_constraint": null, "units": 1024, "use_bias": true, "kernel_regularizer": null, "activity_regularizer": null, "kernel_constraint": null, "activation": "relu", "trainable": true, "bias_initializer": {"class_name": "Zeros", "config": {}}}, "inbound_nodes": [[["concatenate_1", 0, 0, {}]]]}, {"name": "dense_5", "class_name": "Dense", "config": {"name": "dense_5", "kernel_initializer": {"class_name": "VarianceScaling", "config": {"scale": 1.0, "seed": null, "mode": "fan_avg", "distribution": "uniform"}}, "bias_regularizer": null, "bias_constraint": null, "units": 512, "use_bias": true, "kernel_regularizer": null, "activity_regularizer": null, "kernel_constraint": null, "activation": "relu", "trainable": true, "bias_initializer": {"class_name": "Zeros", "config": {}}}, "inbound_nodes": [[["sequential_1", 1, 0, {}]]]}, {"name": "dense_3", "class_name": "Dense", "config": {"name": "dense_3", "kernel_initializer": {"class_name": "VarianceScaling", "config": {"scale": 1.0, "seed": null, "mode": "fan_avg", "distribution": "uniform"}}, "bias_regularizer": null, "bias_constraint": null, "units": 1024, "use_bias": true, "kernel_regularizer": null, "activity_regularizer": null, "kernel_constraint": null, "activation": "relu", "trainable": true, "bias_initializer": {"class_name": "Zeros", "config": {}}}, "inbound_nodes": [[["dense_2", 0, 0, {}]]]}, {"name": "dense_6", "class_name": "Dense", "config": {"name": "dense_6", "kernel_initializer": {"class_name": "VarianceScaling", "config": {"scale": 1.0, "seed": null, "mode": "fan_avg", "distribution": "uniform"}}, "bias_regularizer": null, "bias_constraint": null, "units": 128, "use_bias": true, "kernel_regularizer": null, "activity_regularizer": null, "kernel_constraint": null, "activation": "relu", "trainable": true, "bias_initializer": {"class_name": "Zeros", "config": {}}}, "inbound_nodes": [[["dense_5", 0, 0, {}]]]}, {"name": "dense_4", "class_name": "Dense", "config": {"name": "dense_4", "kernel_initializer": {"class_name": "VarianceScaling", "config": {"scale": 1.0, "seed": null, "mode": "fan_avg", "distribution": "uniform"}}, "bias_regularizer": null, "bias_constraint": null, "units": 524, "use_bias": true, "kernel_regularizer": null, "activity_regularizer": null, "kernel_constraint": null, "activation": "softmax", "trainable": true, "bias_initializer": {"class_name": "Zeros", "config": {}}}, "inbound_nodes": [[["dense_3", 0, 0, {}]]]}, {"name": "dense_7", "class_name": "Dense", "config": {"name": "dense_7", "kernel_initializer": {"class_name": "VarianceScaling", "config": {"scale": 1.0, "seed": null, "mode": "fan_avg", "distribution": "uniform"}}, "bias_regularizer": null, "bias_constraint": null, "units": 2, "use_bias": true, "kernel_regularizer": null, "activity_regularizer": null, "kernel_constraint": null, "activation": "sigmoid", "trainable": true, "bias_initializer": {"class_name": "Zeros", "config": {}}}, "inbound_nodes": [[["dense_6", 0, 0, {}]]]}], "name": "model_1", "input_layers": [["input_1", 0, 0], ["input_2", 0, 0]], "output_layers": [["dense_4", 0, 0], ["dense_7", 0, 0]]}, "backend": "tensorflow"}